…
 'summary_dir': '/afs/crc.nd.edu/user/k/kkosaraj/GITHUB_BUILD_1/my_scripts/test_name=dcbf_2/gamma=0.99/time_steps=6',
 'tau': 0.001,
 'time_steps': 6,
 'use_gpu': True}
starting the scaling
finished the scaling
[0.48696854 0.02814456] [ 23.99765757 -28.57378731]
initalizing the actor and critic func
loading the weights
Model: "actor_network"
_________________________________________________________________
Layer (type)                 Output Shape              Param #   
=================================================================
actor_input_state (InputLaye [(None, 6, 2)]            0         
_________________________________________________________________
conv1d (Conv1D)              (None, 5, 16)             80        
_________________________________________________________________
actor_rnn (GRU)              (None, 10)                840       
_________________________________________________________________
actor_dense_1 (Dense)        (None, 50)                550       
_________________________________________________________________
batch_normalization (BatchNo (None, 50)                200       
_________________________________________________________________
activation (Activation)      (None, 50)                0         
_________________________________________________________________
actor_dense_2 (Dense)        (None, 40)                2040      
_________________________________________________________________
batch_normalization_1 (Batch (None, 40)                160       
_________________________________________________________________
activation_1 (Activation)    (None, 40)                0         
_________________________________________________________________
actor_dense_3 (Dense)        (None, 1)                 41        
_________________________________________________________________
tf_op_layer_actions_scaling  [(None, 1)]               0         
=================================================================
Total params: 3,911
Trainable params: 3,731
Non-trainable params: 180
_________________________________________________________________
None
Model: "critic_network"
__________________________________________________________________________________________________
Layer (type)                    Output Shape         Param #     Connected to                     
==================================================================================================
critic_input_state (InputLayer) [(None, 6, 2)]       0                                            
__________________________________________________________________________________________________
conv1d_2 (Conv1D)               (None, 5, 16)        80          critic_input_state[0][0]         
__________________________________________________________________________________________________
gru (GRU)                       (None, 10)           840         conv1d_2[0][0]                   
__________________________________________________________________________________________________
critic_dense_1 (Dense)          (None, 50)           550         gru[0][0]                        
__________________________________________________________________________________________________
batch_normalization_4 (BatchNor (None, 50)           200         critic_dense_1[0][0]             
__________________________________________________________________________________________________
activation_4 (Activation)       (None, 50)           0           batch_normalization_4[0][0]      
__________________________________________________________________________________________________
critic_input_action (InputLayer [(None, 1)]          0                                            
__________________________________________________________________________________________________
critic_dense_2_state (Dense)    (None, 20)           1020        activation_4[0][0]               
__________________________________________________________________________________________________
critic_dense_2_action (Dense)   (None, 20)           40          critic_input_action[0][0]        
__________________________________________________________________________________________________
concatenate (Concatenate)       (None, 40)           0           critic_dense_2_state[0][0]       
                                                                 critic_dense_2_action[0][0]      
__________________________________________________________________________________________________
critic_dense_3_state (Dense)    (None, 20)           820         concatenate[0][0]                
__________________________________________________________________________________________________
batch_normalization_5 (BatchNor (None, 20)           80          critic_dense_3_state[0][0]       
__________________________________________________________________________________________________
activation_5 (Activation)       (None, 20)           0           batch_normalization_5[0][0]      
__________________________________________________________________________________________________
Q_val (Dense)                   (None, 1)            21          activation_5[0][0]               
==================================================================================================
Total params: 3,651
Trainable params: 3,511
Non-trainable params: 140
__________________________________________________________________________________________________
None
starting the simulation
running - train_rnn_cbf
| Reward: 10062.0397 | Episode: 0 | Qmax: 9.6489
…
